models/best_model.pth (torch, 107106 bytes, 35 tensors)

conv_layers.0.weight f4 [8, 1, 3, 3]
000000 32 7d cc 3c 3e a3 08 be b9 17 9b 3e 5b e3 01 be
       0.024962042 -0.13343522 0.30291536 -0.12684385
000010 5a fa a3 be 61 0c 8b be 18 da a5 bd d0 48 08 3e
       -0.3202694 -0.27157882 -0.08098239 0.13309026
000020 84 fc 45 3e 54 f5 9f bc 17 95 6e 3e f6 64 9a be
       0.19334608 -0.019526161 0.23299061 -0.30155152
000030 5f ce 7a be b9 97 70 3e 7f 92 ad be 33 39 82 3e
       -0.24492787 0.23495378 -0.3390083 0.25434265
000040 b9 1b 0e 3d e6 90 13 3e 74 2a 3e 3e a1 d0 1c 3d
       0.034694407 0.14410743 0.18570882 0.0382849
000050 be 76 9d 3d 23 1f a4 be d4 5b 27 bd 73 92 23 3e
       0.07688664 -0.32055005 -0.04085906 0.15973835
000060 78 bf 99 3d b7 32 99 bd 94 74 60 3e ab 12 5f be
       0.07507223 -0.07480376 0.21919471 -0.21784465
000070 f9 83 2b bd f9 83 35 be b9 15 2d 3e 28 75 83 3e
       -0.041873906 -0.17726125 0.16902818 0.2567532
000080 5d be 3c 3e 87 f2 3e bd b6 a2 42 be bc a5 3c 3d
       0.18431993 -0.04661801 -0.19007382 0.046056494
000090 1d c0 f8 bd be 85 a2 be 11 6f 63 be 67 ff 92 3e
       -0.12146018 -0.31742662 -0.22210337 0.28710482
0000a0 b8 27 6c 3e 09 d7 7f bd cd b1 ea bc ec 8c 9e bd
       0.23062027 -0.062460933 -0.028649235 -0.077417225
0000b0 e5 aa ba bd e3 09 1e be b4 cb a2 3e 43 81 72 3e
       -0.09114627 -0.15433459 0.31796038 0.23682122
0000c0 2a fc 5f be 99 86 21 3b 58 df a4 bd 06 df 15 bd
       -0.21873537 0.0024646877 -0.08050412 -0.036589645
0000d0 fb bf 5b be ed 01 ee 3d 1c 24 78 3d 1d 22 8c be
       -0.21459953 0.11621461 0.06058131 -0.27369776
0000e0 09 7d 54 3e 06 2f 81 3e 5d e3 55 3e ef 57 00 be
       0.20750822 0.2523119 0.20887513 -0.12533544
0000f0 b1 9e 83 3e 4a b7 3d 3e 32 8f e2 3d 96 91 7a 3e
       0.2570701 0.1852695 0.110624686 0.24469599
000100 44 11 9b 3e 1d 67 30 3e 99 20 9a be e4 c6 12 be
       0.3028661 0.17226835 -0.30102995 -0.14333683
000110 ea e9 9c 3e 5e dd 0a 3e 45 54 36 3d 85 42 54 3e
       0.30647212 0.13561007 0.04451396 0.207285

conv_layers.0.bias f4 [8]
000000 c6 95 1e 39 9b 27 13 38 18 7d 0d bc 03 96 9f 3d
       0.00015123849 3.5084417e-05 -0.008635782 0.07792284
000010 82 5b 18 3b 55 71 f0 39 54 fa f5 3a c1 05 93 bd
       0.0023247902 0.00045860806 0.001876662 -0.07178832

conv_layers.1.weight f4 [8]
000000 b3 b7 80 3f cd 9a 7f 3f dc 1c 7a 3f 07 28 81 3f
       1.005606 0.9984558 0.97700286 1.009034
000010 2b aa 7f 3f 56 fc 81 3f 63 06 7e 3f ee b9 7c 3f
       0.9986903 1.0155132 0.99228495 0.98721206

conv_layers.1.bias f4 [8]
000000 3d 08 8d 3c 92 cb cb 3c 0f ca 1f bc 53 56 17 3d
       0.017215842 0.024877343 -0.009752764 0.03694756
000010 0c 80 22 3b eb 67 1f 3d cf 98 3c bc 8b 50 0a bc
       0.002479556 0.038917463 -0.011511042 -0.0084420545

conv_layers.1.running_mean f4 [8]
000000 3a 1d fd bd 0c eb 87 ba dd 6b 06 3e 8b 7a 90 3d
       -0.1235909 -0.0010369732 0.13127084 0.07054623
000010 fa 6a 31 be 12 4a 66 bc 35 97 c7 3e 05 a7 b4 3e
       -0.17325965 -0.014055746 0.3898255 0.35283676

conv_layers.1.running_var f4 [8]
000000 49 3f d6 3b 38 22 9e 3a f4 c2 f6 3b 34 9c 48 3a
       0.006538306 0.0012064641 0.0075305644 0.00076526706
000010 21 1c 49 3c 36 35 af 3a 93 dc 60 3d 84 f6 86 3d
       0.012274773 0.0013367299 0.054897856 0.06589988

conv_layers.4.weight f4 [8, 8, 3, 3]
000000 24 ce 6f bd 87 7f 9a bd 5a 20 9e bd 59 5b 1a bd
       -0.0585462 -0.07543855 -0.07721014 -0.037684772
000010 fa e6 e8 3d 24 3f 01 bd d0 ec 0b bd c0 ef 7c bd
       0.1137218 -0.031554356 -0.03416139 -0.06175208
000020 80 00 e1 3c 56 86 92 bc af 5b be 3d 37 91 b0 bd
       0.027466059 -0.017886322 0.09294831 -0.086214475
000030 81 bf 18 3d dc cd d3 bd f9 6e 65 bd e1 6c 5e bd
       0.037292007 -0.10341999 -0.056014035 -0.054303054
000040 c3 76 f5 bd 88 6f 45 3d a6 69 04 bd e0 ae 90 3d
       -0.119855426 0.048202068 -0.032327317 0.07064605
000050 01 7e 59 3d 56 93 05 bd 46 28 c6 bd 9b 11 a7 bc
       0.053098682 -0.032611214 -0.0967565 -0.020394137
000060 86 e5 17 bd 54 42 f6 3c a9 1e cc 3d 06 84 e4 bd
       -0.037084125 0.030060925 0.099667855 -0.11157994
000070 5c 60 6e 3d 02 64 1c be f2 e7 fc bd 24 6c 37 3d
       0.058197364 -0.15272525 -0.123489276 0.044780865
000080 15 f1 40 3d 70 f0 c7 bd b6 1b f6 bd d4 e9 be bc
       0.047104914 -0.09762657 -0.12017004 -0.023304857
000090 02 49 a0 3d 66 8a 58 3d 66 71 23 bd 19 cf 09 3d
       0.07826425 0.052866362 -0.039903067 0.03364477
0000a0 ed 55 c1 3d 8c dd 74 3d a5 be 72 bd f0 ec 87 3b
       0.09440217 0.059781596 -0.059263844 0.004148118
0000b0 9d 78 0e 3d 17 ed 8a bb 69 03 eb bd ac 57 93 bc
       0.034782995 -0.004239689 -0.1147526 -0.017986141
0000c0 cb 03 19 3c 66 5c f7 bd df 00 e4 3d 50 3e f5 bd
       0.009339283 -0.120781705 0.11132979 -0.11974776
0000d0 4d 02 91 bd 59 f1 a1 bd f9 1e 76 3d bd e0 8c bc
       -0.07080517 -0.079073615 0.06008813 -0.017197007
0000e0 84 8d ac bd b5 5e b6 3d eb f5 ba 3a c2 eb 28 3d
       -0.084254295 0.08904783 0.0014263963 0.04124046
0000f0 0e 19 e3 3d be 74 ba bd 3d ff d0 3d 8c 41 da 3d
       0.11088763 -0.09104298 0.10204933 0.10657033
000100 84 55 c7 3c a3 d7 c8 bd e4 6a d2 bd c4 12 cb bd
       0.02433277 -0.098067544 -0.10274294 -0.09915689
000110 68 91 4d 3d 9d 98 cc 3d 0a 14 d3 bc 37 df 19 bd
       0.0501875 0.09990046 -0.025766391 -0.03756639
000120 69 88 7c 3d b2 c5 ab 3d 75 f3 82 3d 18 99 0d bd
       0.06165353 0.08387317 0.06394092 -0.03456983
000130 e8 99 02 bd 8d 5f 8e 3d 18 c0 42 bd fa 4c e7 3d
       -0.031885058 0.069518186 -0.047546476 0.11293979
000140 dc 98 a7 3d 01 e6 9d bd 46 e9 87 3d fd 93 93 bd
       0.081834525 -0.077098854 0.0663629 -0.07205961
000150 d7 37 02 bd 7f fc 0e 3e 69 57 d2 3d 07 e8 3d 3d
       -0.031791534 0.13963507 0.102705784 0.046363857
000160 39 fd e1 3d a6 6d b7 bd e9 ba d3 3d 7a 39 30 3b
       0.110346265 -0.08956461 0.10338385 0.0026889727
000170 f7 21 69 bd af 64 01 bc bc 5b 40 bd 19 7c 48 bd
       -0.056917157 -0.00789754 -0.046962485 -0.048946474
000180 43 dc a3 3d 42 e6 89 3d e9 c0 b2 bd b9 e4 22 3d
       0.08000996 0.06733371 -0.08728201 0.03976891
000190 49 8c e4 bd 28 65 df bd 97 15 35 bd e2 d5 c6 3d
       -0.1115957 -0.10907966 -0.044210043 0.09708764
0001a0 83 f0 b2 bd 01 e3 5c bd 0e 1e 30 3b 4d d8 ec bd
       -0.0873728 -0.053927425 0.0026873383 -0.115646936
0001b0 8e 04 d1 bd b1 e6 aa 3d f8 9e c9 ba 50 a9 d7 3d
       -0.10205947 0.08344782 -0.0015382459 0.10530341
0001c0 f4 e9 0d 3c 48 e8 ab bd 92 35 14 3d 92 ab 88 3a
       0.008661736 -0.083939135 0.0361839 0.0010427109
0001d0 f4 1a bf 3d 1f a8 b5 3d 0a ef 27 3d fa 11 ab bc
       0.09331313 0.08869957 0.04099945 -0.020882595
0001e0 6e fb 16 bd fd f7 17 3d 4a 9e 8b bd 01 c5 53 bd
       -0.036860876 0.037101734 -0.068173006 -0.05170155
0001f0 18 4c 86 bd 80 d6 fb 3c b8 e7 c2 3c 94 8d d1 bd
       -0.065574825 0.03074193 0.023792133 -0.10232082
000200 f7 cf 97 3d fa a6 04 3c ee 91 38 bd b3 76 0c 3d
       0.07412713 0.008096451 -0.045061044 0.034292888
000210 e0 9d 54 bc a6 ba ab bd 63 98 93 3d db 9b ea bc
       -0.012977093 -0.0838521 0.072068 -0.02863877
000220 04 98 53 bd 85 21 8a bd c5 84 a3 3d 60 37 0e 3d
       -0.051658645 -0.067446746 0.07984308 0.03472078
000230 08 8e 50 bc 80 14 72 3c 52 32 ea 3d cc 03 2a 3d
       -0.012729175 0.014775395 0.11435379 0.041507527
000240 77 3a e2 bd 43 78 c2 3b 55 d2 d6 bd b4 29 03 bc
       -0.110463075 0.0059347465 -0.104893364 -0.008005548
000250 d3 18 65 3c a7 df b2 bd c6 b3 b9 3c 6e ed bb 3d
       0.013982969 -0.087340645 0.02266873 0.091761455
000260 86 38 00 3e 75 d8 5d bd 77 ed a3 bd 02 47 3b bd
       0.12521562 -0.054161508 -0.08004277 -0.045722015
000270 12 81 89 bd f9 d0 01 be 5c ca e9 bd 57 a4 5e bd
       -0.06714071 -0.12677373 -0.1141555 -0.054355945
000280 ce 27 8d 3d 19 c7 d5 3d a1 52 7d 3d 61 b0 9f 3c
       0.06892358 0.104383655 0.06184638 0.019493284
000290 09 9c a1 bd 5e db 71 3c 52 dd 20 3d 83 f3 8a bd
       -0.078910895 0.014761774 0.039273567 -0.067847274
0002a0 69 0f c8 bd dd 45 c7 3d 2c df 46 3d 03 70 84 bd
       -0.09768564 0.09730122 0.048552677 -0.06466677
0002b0 ba 25 77 bd c8 9e 04 3e a8 7a 64 3c 84 a0 b1 3d
       -0.060338713 0.12951195 0.013945259 0.08673194
0002c0 16 8d 08 bd 3f 56 5b 3d 83 0a 13 bd 0b f9 b0 bc
       -0.033337675 0.053549048 -0.035898697 -0.021603128
0002d0 34 8d ad bd c8 58 38 bd cb 18 d4 3d 19 ed ef bd
       -0.08474198 -0.045006543 0.103562914 -0.11715145
0002e0 c1 14 56 3d 78 3a b5 3c 58 ae 5b bc 63 63 d2 3d
       0.052265886 0.022122607 -0.013408266 0.10272863
0002f0 0a 79 1d bd 69 9a b5 bd bc 3d 3c bd f0 39 5c bd
       -0.03844551 -0.08867342 -0.045957312 -0.05376619
000300 29 a0 9f 3d ab 8b 30 3d 3d 09 cc 3d 34 f7 79 bd
       0.0779422 0.043101948 0.099626996 -0.061026767
000310 0a 4f 42 bc c5 36 75 bd 94 79 2a 3d c6 1f 05 3d
       -0.011859665 -0.059866685 0.041619852 0.032501005
000320 5e 94 59 3d c7 72 c6 bd 08 31 e5 3d bb 29 2f bd
       0.05312001 -0.09689861 0.111909926 -0.042764407
000330 5c 1e e8 bd 1a 2c b0 3d 85 9a e3 3d 3e ec a0 bd
       -0.113339156 0.08602162 0.11113457 -0.078575596
000340 8b c2 ec bd 7d 42 d1 bb b5 77 55 bd b2 0c ce 3d
       -0.115605436 -0.0063861 -0.052116115 0.10061015
000350 5c 0d c4 3b 87 c0 15 3c 3f 47 5a 3c ee ef 8c 3d
       0.005983038 0.00914014 0.01332265 0.068817005
000360 b1 37 86 bd 0c c8 d9 bd b1 06 c5 bc e2 a1 e5 3d
       -0.06553591 -0.10633859 -0.024051042 0.11212517
000370 3e c8 ff 3b ce 98 61 bb b5 63 94 3d 75 37 a0 bd
       0.007805853 -0.0034423354 0.0724558 -0.078230776
000380 3b 8e 67 3b 70 99 06 3d c5 62 c0 3d 69 c3 80 bd
       0.0035332579 0.032861173 0.09393839 -0.062872715
000390 ac 68 bf bd c9 1f 26 bc f9 14 7f 3d dc 97 8b 3d
       -0.093461365 -0.010139414 0.06227586 0.06816074
0003a0 0d 61 e4 3d 16 b7 d2 bd 2b ba 72 bd 43 88 c8 bd
       0.111513235 -0.10288827 -0.059259575 -0.09791615
0003b0 4a c6 53 bd 2d a4 ad 3d a7 8f ed 3d dc 87 be bd
       -0.051702775 0.0847858 0.11599665 -0.09303257
0003c0 e3 f6 c0 38 af 7b b8 bb 3a 54 bc bd fd a9 cd bc
       9.20126e-05 -0.0056299786 -0.091957524 -0.02510547
0003d0 1d 5a 4e 3d 0c b6 b3 3d 51 b4 df bc 92 c9 5a ba
       0.050378907 0.08774957 -0.027307661 -0.00083460764
0003e0 91 43 60 3d a4 21 12 bd e5 5f 4c 3d 20 96 8e bd
       0.054751936 -0.035676613 0.04989614 -0.06962228
0003f0 22 99 5f bd 67 b8 04 bd 2d 8b 8e bd ae e8 9c 3d
       -0.0545894 -0.032402422 -0.069601394 0.07661568

conv_layers.4.bias f4 [8]
000000 c3 8d 75 b9 55 9e cd b9 b4 34 35 39 c4 d5 16 b8
       -0.00023417831 -0.00039218614 0.00017281139 -3.596187e-05
000010 cc bb 81 b7 2d 33 c8 39 30 fe 1f 38 f2 ac d1 38
       -1.5465448e-05 0.00038185102 3.8145285e-05 9.99811e-05

conv_layers.5.weight f4 [8]
000000 6c 70 83 3f c3 87 80 3f ff 27 7c 3f 1c b0 7a 3f
       1.0268683 1.0041431 0.9849853 0.9792497
000010 3b a4 81 3f 6b 0e 80 3f 6c e8 77 3f 29 98 7f 3f
       1.0128244 1.00044 0.9683902 0.9984155

conv_layers.5.bias f4 [8]
000000 53 98 2c 3c 9c 7c c6 bb ca 4b a1 bb ff 57 9f bb
       0.010534364 -0.006057335 -0.004922365 -0.004862785
000010 fe 55 ba 3c 15 c0 ea 3c 0b 46 8e bc f3 f2 7a 3c
       0.022746082 0.028656045 -0.017367383 0.015316713

conv_layers.5.running_mean f4 [8]
000000 61 27 bd be 3c 22 48 3e b5 db f9 bd 55 af 47 bd
       -0.36944106 0.1954431 -0.12200109 -0.048751194
000010 13 74 0a 3e f1 75 29 be 6a 5e fa be 51 8d 9c be
       0.13520841 -0.16548897 -0.48900157 -0.30576566

conv_layers.5.running_var f4 [8]
000000 51 3d a2 3e 86 e8 1e 3e 74 b8 1a 3e 58 a1 a0 3d
       0.31687406 0.15518388 0.15109426 0.07843274
000010 68 d6 ab 3e d3 ec 07 3e 73 a8 a4 3e 58 19 b0 3d
       0.33562016 0.13273935 0.32159767 0.08598584

conv_layers.8.weight f4 [8, 8, 3, 3]
000000 69 30 31 3d bf 71 b1 bd 9d ed 4a bd df f0 9f bd
       0.04325906 -0.086642735 -0.049543012 -0.078096144
000010 60 45 16 bd 16 9b a1 bd 52 b9 92 bd 66 da 85 3d
       -0.036687255 -0.078909084 -0.07164253 0.06535797
000020 27 66 cc bd 81 c4 e2 3c c0 46 ec bd 30 b2 04 be
       -0.099804215 0.027681591 -0.11536932 -0.12958598
000030 c3 41 08 be 6b 8d 5b 3c 36 47 a6 3d 9b 01 b7 bd
       -0.13306336 0.013400416 0.08119051 -0.08935853
000040 9c 20 97 bd 2e 14 9b 3d 20 d1 0b bc 75 7b 91 bd
       -0.073792666 0.07572208 -0.008533746 -0.07103626
000050 15 40 9d 3c 1f 39 4e 3c 52 e2 73 3d 7c 4c 7a 3d
       0.019195596 0.012586861 0.059542008 0.061108097
000060 77 7a 35 3d 0c 62 06 bd 8c e1 f4 bb ca 3e 43 3d
       0.044306245 -0.03280835 -0.0074731763 0.047667302
000070 40 be 84 bd 7e 25 19 3c 59 33 67 3d 8d 0a 0a bd
       -0.064816 0.009347318 0.056445453 -0.03370147
000080 02 5c b4 bd bc f1 10 be fa 98 4e 3d 8b ed a9 bd
       -0.088066116 -0.14154714 0.05043886 -0.08297261
000090 4c 0c ed bd fe b8 5a 3d 30 40 49 3d df d9 78 bc
       -0.11574611 0.05339908 0.04913348 -0.015188663
0000a0 42 fc 8f 3c d8 ff 0f 3d 93 f9 b7 bd 99 71 77 3d
       0.01757634 0.0351561 -0.089831494 0.06041107
0000b0 8c 70 fc bb 77 22 98 3c 19 ba 26 3d 9a 2a 59 3d
       -0.0077038463 0.018571122 0.04070482 0.053019144
0000c0 bc 01 ed 3b 81 e2 3c bd 8a 35 cb bd 1c f4 0c bd
       0.007232873 -0.04611445 -0.09922321 -0.03441249
0000d0 f9 b3 99 bc 2d f4 c5 3d 3f d1 97 bd 86 91 93 3d
       -0.018762575 0.096657135 -0.074129574 0.07205491
0000e0 1a b9 05 3d 2a c1 ad 3d 23 06 78 bd b5 18 a1 bd
       0.03264723 0.08484109 -0.060552727 -0.078660406
0000f0 0d f2 9c 3d 02 59 25 3b 28 ae b7 3c 49 b4 62 bd
       0.07663355 0.0025230055 0.022421911 -0.055347715
000100 f8 39 86 3d f3 55 e4 bd 80 4a 10 3d 45 7c 90 3d
       0.065540254 -0.11149206 0.0352273 0.070549525
000110 43 fa d3 3d f6 96 81 bc c4 0b ed bc 8b 92 20 bd
       0.10350468 -0.015819054 -0.028936274 -0.039202254
000120 d2 05 b7 3d 2e a1 cc 3d f9 53 a8 3c b8 06 99 bd
       0.08936657 0.0999168 0.020547854 -0.074719846
000130 7e b3 96 bc 82 e8 64 3c c5 8d 35 bd 31 47 c8 bd
       -0.018396135 0.01397145 -0.044324655 -0.09779204
000140 bd a3 98 3d 0b 38 9f 3a 77 dc 93 3d a8 2e c1 bd
       0.074531056 0.0012147439 0.07219785 -0.09432727
000150 d1 cc 0f bd 98 96 a5 bd e5 25 c8 3b 1c 3f bb 3d
       -0.035107438 -0.08085364 0.006108033 0.091428965
000160 c5 d4 87 bd 06 b9 e2 3c 21 7b e9 3d 9b cc 54 bc
       -0.066323794 0.027676117 0.11400438 -0.012988235
000170 ac e0 3c bd 2c 3d cb 3d a1 08 6c 3d 6a 91 97 3d
       -0.0461127 0.09923777 0.057625417 0.074007824
000180 c8 a4 98 3d 36 24 61 3d c5 e9 ce 3d 45 d7 45 bc
       0.074533045 0.054966174 0.10103182 -0.01207525
000190 22 0f 1e 3c 98 fc 86 bd 01 6b ea bd 58 fa 92 3d
       0.009647163 -0.06591147 -0.114461906 0.071766555
0001a0 58 ea 41 bd 23 7f 61 bb 34 b2 3b bd 34 e1 5d 3d
       -0.04734263 -0.0034408055 -0.045824245 0.05416985
0001b0 2a e2 2d 3c 29 20 d3 3c b2 f1 b6 3d 3e 68 76 3d
       0.010613004 0.025772171 0.089328185 0.060158007
0001c0 fe 1e 70 bd ac c7 84 3c 60 8f a7 bd e9 fb d1 3c
       -0.058623306 0.016208492 -0.081816435 0.025632815
0001d0 3c bd e1 bc a8 2c 05 3d 9a fa 81 bc de 3d 97 bc
       -0.027556054 0.03251329 -0.015866566 -0.018462118
0001e0 13 8e 32 bd 48 1a 09 3d 71 1a 0d 3d 9f 56 73 bc
       -0.043592524 0.03347233 0.034449045 -0.014852195
0001f0 58 b0 82 bd 3f bc 8d 3c 97 d1 a7 bd 94 ce 94 3c
       -0.06381291 0.017301677 -0.08194273 0.01816491
000200 81 d9 ca 3d 43 a2 9b 3d ad 84 9a 3c d7 fc be bd
       0.09904767 0.07599308 0.018862093 -0.09325569
000210 c5 52 03 3e 01 7c 06 3e 11 e9 c4 3b f1 73 fd bc
       0.12824543 0.13133241 0.006009229 -0.030939074
000220 bc f0 81 3d 27 09 03 3c 68 87 43 3d 9a e2 ca bc
       0.063447446 0.007997788 0.047736555 -0.024766255
000230 ea 81 b2 bd 95 f3 da 3d cf 5b bc 3d bc 95 b1 3d
       -0.087161854 0.10690991 0.091971986 0.08671138
000240 99 7b bb 3d a7 e5 eb 3d cb 05 81 3d 5d f8 9c 3c
       0.09154434 0.11518412 0.06299933 0.019161398
000250 66 17 a7 3d 38 91 e1 bd 26 df 1d 3d 0d a7 73 bc
       0.0815876 -0.110140264 0.03854289 -0.014871371
000260 55 21 c7 3d 7d 23 98 bd 8c c8 da bd e9 31 74 3d
       0.097231545 -0.07428644 -0.106827825 0.05961791
000270 8f 23 2b bd ab 9b a9 bd e0 50 e2 38 56 fa 3a 3d
       -0.04178196 -0.082816444 0.00010791584 0.045648895
000280 4f 6c 8b 3d 8d 6b 75 3c 86 f2 83 bc 6a c7 cd 3d
       0.068077676 0.014979255 -0.016106855 0.10047801
000290 2e f9 8d bd 17 7f 57 bd 8b 0c 9e 3d cb df 83 3d
       -0.06932293 -0.052611437 0.07717236 0.064391695
0002a0 1c b1 b9 3b 30 e3 ae bd 2d e8 3e bd a1 6c 8a 3c
       0.005666865 -0.08539426 -0.04660814 0.016897501
0002b0 9f b8 96 bd 01 61 ae bd aa ad ed bd 11 c6 a9 3d
       -0.073594324 -0.08514596 -0.116053894 0.08289731
0002c0 c8 fe 0c 3b 81 e5 a5 bd aa 8c 22 bd 50 37 b1 3d
       0.0021514166 -0.08100415 -0.03968493 0.08653128
0002d0 a5 39 ac bc 5e 8c 2e bd dd e6 16 3d 28 a7 bb 3d
       -0.02102358 -0.042614333 0.036841262 0.09162742
0002e0 b9 44 da bd 7c b9 ca bd 4f e6 e9 bd 56 e8 28 bc
       -0.10657639 -0.098986596 -0.11420881 -0.010309299
0002f0 93 07 a0 bd 32 fa a7 3d 49 8f e0 bb dc 4f e1 3d
       -0.07813945 0.08202018 -0.0068530184 0.1100156
000300 36 24 31 3d d6 95 8d 3c 95 c7 c9 3d 1b 4c 27 bd
       0.043247424 0.017283361 0.098525204 -0.040844064
000310 f1 5b b0 bd 6e c4 b3 bd 8c a4 d3 3d ca c6 78 3d
       -0.086112864 -0.087777 0.10334119 0.060736455
000320 b2 ee 91 bd 1a d1 a4 bd 3c 92 a6 bd 1f 82 71 3d
       -0.07125606 -0.080476955 -0.08133361 0.058961984
000330 cf fa 94 bd 5d 92 6f bd 7f bf e6 3d 54 97 c3 bd
       -0.072744004 -0.058489192 0.11266994 -0.09550348
000340 fd 31 27 3d 68 dd a1 bd 1e 85 e6 3d e7 56 2d 3d
       0.040819157 -0.07903558 0.11255859 0.042319205
000350 6e 65 b7 3d 4e 78 df bc 97 6b e2 3c 41 9f e9 3c
       0.08954893 -0.027279045 0.027639193 0.028518321
000360 29 32 77 bc 64 97 d9 bd ce fa a2 bd 2d 93 bf 3d
       -0.015087643 -0.106245786 -0.079579934 0.093542434
000370 fb 46 b8 bd d2 0c a4 bd ba 93 db bd cb 6e 0d bd
       -0.089979135 -0.08010258 -0.10721536 -0.03452949
000380 10 34 de 3c f5 e6 99 3d d6 51 c0 bd ba 7e 05 bd
       0.027124435 0.07514755 -0.09390609 -0.03259156
000390 68 83 d8 bd eb d4 95 3d b1 1f 0a 3d ac 16 c7 3d
       -0.10571939 0.073160015 0.03372163 0.09721121
0003a0 7b 30 f5 bb 88 9c 68 bd bf 7e 0b 3d b0 35 6a bc
       -0.007482586 -0.056789905 0.03405642 -0.014295027
0003b0 1d 61 a0 3d 93 9b 08 3d b8 14 06 3e 60 3c a7 bd
       0.07831023 0.033351492 0.13093841 -0.081658125
0003c0 60 10 38 3c 20 50 97 bd 86 5d 2e 3d 48 71 06 3c
       0.011234373 -0.073883295 0.04256966 0.008205719
0003d0 02 92 f6 bd 98 cb 81 bd ad db d1 bd d1 b7 79 3d
       -0.120395675 -0.063376606 -0.10246978 0.060966317
0003e0 5b 12 91 3d 25 9c 97 bd 3e 90 c6 3c 28 2f 10 3c
       0.07083579 -0.07402829 0.024238702 0.008800305
0003f0 f9 56 c7 3b 7a 11 8a 3d 4b a9 d5 bd 8c 9f 6b bd
       0.006083366 0.06741615 -0.10432681 -0.057525203

conv_layers.8.bias f4 [8]
000000 f4 ad 97 38 a1 a8 08 37 91 50 ed b8 ab a4 53 b9
       7.2326424e-05 8.145494e-06 -0.00011316047 -0.00020183872
000010 a4 89 11 b7 3f 4a ac 38 4a d6 85 37 48 15 cf 38
       -8.67472e-06 8.2154285e-05 1.5954622e-05 9.874493e-05

conv_layers.9.weight f4 [8]
000000 e8 1e 7e 3f d5 d6 7e 3f 90 c0 7f 3f 97 40 7e 3f
       0.9926591 0.9954656 0.999032 0.99317306
000010 35 14 81 3f 1d 8d 7b 3f 01 26 7f 3f 31 fc 81 3f
       1.0084292 0.98262197 0.99667364 1.0155088

conv_layers.9.bias f4 [8]
000000 c6 f3 52 3c 94 c5 30 3c f7 7c 0e 3c 2a b9 e4 3b
       0.012875503 0.010789294 0.008696786 0.006980081
000010 b1 47 7b 3c 7f 79 20 bb 5b 09 48 3b d1 e5 93 3b
       0.015336917 -0.002448648 0.0030523154 0.0045134802

conv_layers.9.running_mean f4 [8]
000000 d5 9c b5 be f3 6b df 3e 85 fd 81 bd ce 11 e0 be
       -0.35471216 0.43637046 -0.06347183 -0.43763584
000010 bf 2a 65 be 9f b3 8c be 32 14 d4 bd 7b 61 3f be
       -0.22379588 -0.2748079 -0.103554145 -0.1868953

conv_layers.9.running_var f4 [8]
000000 2d 4c e8 3d f9 43 d7 3d 79 69 6c 3e 8a 92 0c 3e
       0.113426544 0.10511012 0.2308711 0.13727775
000010 b3 28 07 3e 87 48 a6 3e b2 ce bc 3d d6 97 c6 3e
       0.1319912 0.3247721 0.092191115 0.38787717

conv_layers.12.weight f4 [16, 8, 3, 3]
000000 94 1e b5 bc c5 57 1a bd 15 62 ce 3c dc 3f 25 3d
       -0.022109307 -0.03768136 0.025193254 0.040344104
000010 c5 e2 64 bb 73 33 91 3d 12 2f 94 bd 48 b9 75 3d
       -0.0034925204 0.07089891 -0.072355404 0.05999115
000020 9d 34 e6 3c 2d af b3 bc d9 0b db bd fa 73 59 3d
       0.02810126 -0.021934116 -0.10695619 0.05308912
000030 a0 c3 50 3d c6 ea 6c bc e4 8d 01 be 32 76 55 3d
       0.050967813 -0.014460271 -0.12651783 0.052114673
000040 c5 6f aa bb 62 cb 34 bc 18 07 10 bd b3 3e 85 3d
       -0.0052013122 -0.011034818 -0.035163015 0.065060996
000050 98 0b 69 bd f8 d2 50 bd 5d f5 2a bd ca 4b b3 bd
       -0.056895822 -0.050982445 -0.041737903 -0.0875469
000060 82 7e e0 3d 44 52 d6 bd 17 64 62 3d 21 09 b8 bd
       0.109616295 -0.1046491 0.055271234 -0.08986116
000070 17 a7 7b 3d 24 bf 2d 3d 46 24 0c 3d cc bb 60 3c
       0.061438646 0.042418614 0.03421428 0.013716649
000080 9b f1 cd 3d 0e 53 54 3c c7 03 97 3c 2c 7c 86 bd
       0.10055848 0.012959255 0.018434418 -0.06566653
000090 f0 4f 48 3c c2 f2 c2 bd 86 bb bd bd b3 37 44 3b
       0.01222609 -0.09518959 -0.09264283 0.0029940426
0000a0 b6 40 4b 3d aa 10 bc bd d8 1f f7 3d 6c 77 0d 3d
       0.04962226 -0.09182866 0.120666206 0.034537718
0000b0 9e 8c 96 3d cb 27 a6 3d fc a3 b7 3d bb 13 9f 3b
       0.07351039 0.08113059 0.089668244 0.004854647
0000c0 42 68 b7 bd ad f8 86 bd 6e 96 ab bd ec 88 ea 3d
       -0.089554325 -0.065904 -0.083783016 0.11451897
0000d0 d0 fe b5 bb 50 5f 3e bb 51 00 31 3d 05 3b bc 3d
       -0.0055540577 -0.002904851 0.043213192 0.091909446
0000e0 77 45 bf bd f1 a2 1a 3d b3 4a 1d 3d cc 53 3c bd
       -0.09339421 0.03775305 0.038401317 -0.045978352
0000f0 ba f8 b5 3d 33 9e 0d 3d a8 03 a0 bb 2e f9 b3 bd
       0.088853315 0.0345747 -0.0048832484 -0.08787762
000100 95 c0 ef 3d 97 ff a6 bc 6e 49 2d 3c 44 79 af bd
       0.11706654 -0.020385547 0.010576589 -0.085680515
000110 1b bd 30 3d 6e 5f 85 3d 6e a4 06 3d 97 1d 41 3d
       0.043149095 0.065123424 0.032871656 0.04714736
000120 2a 9d f9 3c 45 c7 d8 bd d4 39 14 bc fb 2a de 3d
       0.03047045 -0.10584883 -0.00904699 0.108480416
000130 ea 70 e9 bd 5d c0 9a 3b 8e af 69 3d d3 0e 97 bd
       -0.1139849 0.0047226385 0.057052188 -0.07375874
000140 55 71 5f 3d a2 95 0c 3d 60 39 a2 3d 2f 9e 61 3d
       0.05455144 0.03432239 0.079211 0.055082496
000150 37 0c c6 3c 1a 55 a3 bd fa ea 2b 3d dc 1d 71 bd
       0.024175746 -0.07975216 0.041972138 -0.058866367
000160 07 35 d1 bc 14 e0 ed bc 9d f5 61 bb 81 bd c5 bd
       -0.02553798 -0.029037513 -0.0034478672 -0.096552856
000170 36 13 73 3d 4e 60 a7 bd aa 81 93 bd 12 c8 a6 bc
       0.059344493 -0.081726655 -0.07202466 -0.020359073
000180 cc b4 b3 3c dd 9a 2d 3c 0a d3 c3 3d 85 f9 fd bc
       0.021936797 0.010596004 0.09561737 -0.03100277
000190 93 dd c0 bd 42 b6 1e bc 36 24 de bb b8 1f 14 bd
       -0.09417262 -0.009687008 -0.006779219 -0.03616306
0001a0 f9 32 54 bd 7e e2 43 3d c9 a5 ed bc 39 9d 9f 3d
       -0.051806424 0.04782342 -0.029009717 0.0779366
0001b0 1b fe 50 bd b6 80 85 3c 56 27 03 3e 87 21 b1 3d
       -0.051023584 0.016296726 0.12807974 0.08648973
0001c0 08 a5 6f bc f4 12 49 3c 92 d1 89 3d 8d bf 83 3d
       -0.014626749 0.012272585 0.067294255 0.0643302
0001d0 86 57 64 3a e7 a3 bc 3c fb 5b 8e bd ef 3d cf 3d
       0.0008710552 0.023027373 -0.06951138 0.10119235
0001e0 50 52 b7 bd 2a 7b c7 3d cc 9d 52 bd d2 72 69 3d
       -0.08951247 0.097402886 -0.051420018 0.056994267
0001f0 db 16 c8 ba 05 36 37 bc da 8e 54 3d dd 6b f6 bd
       -0.00152656 -0.011182313 0.051894046 -0.12032292
000200 c9 25 97 bd 17 b8 a6 3d bf 80 41 bc bf a9 e1 bd
       -0.07380254 0.08140581 -0.011810481 -0.110187046
000210 2b e9 8c 3d 0c 05 d1 3d ae c7 c2 3d 9c e2 df bc
       0.06880411 0.10206041 0.09510742 -0.027329735
000220 b9 da e6 bd 2f ac b3 bc 2e 39 cd bd b2 5d 8c bb
       -0.11272187 -0.02193269 -0.10020672 -0.0042836303
000230 1a a6 30 3c 90 8d a6 3b af 7b e0 bc 59 80 97 3d
       0.010781789 0.0050827935 -0.027402727 0.07397527
000240 10 c4 bd 3a 23 fd 2e bc 8d d7 f0 3d 8f b6 e8 3d
       0.0014477987 -0.01068047 0.11759863 0.11362945
000250 e1 7a 04 bc fc d3 e5 3d c2 9a e9 bd 3a f5 cf bc
       -0.008085937 0.112220734 -0.11406471 -0.025385488
000260 42 c7 3b 3d 8e 06 f4 bd 1e b9 9b bd c6 ec 2f 3d
       0.045844324 -0.11915313 -0.07603668 0.042950414
000270 05 25 3e bd 86 71 86 bc 31 df 96 3d 52 4b bf bc
       -0.046422023 -0.016411554 0.07366789 -0.023351345
000280 2a 1d b3 bd a9 2f 95 bd 81 4c f4 bc 51 e5 31 bc
       -0.08745797 -0.07284481 -0.029821636 -0.010857896
000290 06 4b de bd 77 18 a3 3c 09 34 ab bd 6f 63 87 3d
       -0.10854153 0.019909127 -0.08359534 0.06610762
0002a0 14 09 2e bd 90 28 c7 bd e1 61 a4 bc 93 22 af bd
       -0.042489126 -0.097245336 -0.020066204 -0.085515164
0002b0 32 f1 56 bd cf 55 0e 3d f0 4e 73 3d 28 da d2 bd
       -0.052476116 0.034749802 0.059401453 -0.10295516
0002c0 44 0d 99 3d 40 63 4d bb 2b 92 de bc c5 4a 62 3d
       0.07473233 -0.0031339675 -0.027169308 0.055247087
0002d0 7c c4 84 bd 52 da 43 bd bc 73 3f bd 85 a3 dd 3d
       -0.06482789 -0.04781563 -0.046741232 0.108222045
0002e0 fc 99 ec 3c 55 77 e3 3d b4 35 d5 bc e8 bd 2d bd
       0.02888202 0.11106745 -0.026026584 -0.042417437
0002f0 7d bd 13 3d f3 bd 1c 3d 0f 13 d9 bd 42 e9 0f 3d
       0.036069382 0.038267087 -0.10599338 0.03513456
000300 1b 23 43 3d 4d 34 c3 bd 1c a4 b5 bd fc 3a 00 3d
       0.0476409 -0.0953146 -0.08869192 0.031306252
000310 31 25 d2 bd e0 5c 65 bd 93 fa 88 bc 56 03 d0 bc
       -0.10261 -0.055996776 -0.016721046 -0.025392216
000320 b3 81 1f bd 7d 20 a3 bb 25 0f 99 3d d0 1a cb 3d
       -0.03894205 -0.004978238 0.07473592 0.099172235
000330 f7 06 42 bd 1d b8 d9 3d e8 4b a4 3d 50 aa a9 bd
       -0.047369923 0.1063082 0.080222905 -0.08284438
000340 7e d4 b3 3d 76 18 90 3d 99 87 41 3d 7d da 39 bc
       0.08780764 0.070359156 0.047248457 -0.011343596
000350 e9 da fc bc 40 90 86 bb a7 57 92 bd cd 97 b1 bd
       -0.030866103 -0.0041065514 -0.071456246 -0.08671532
000360 b5 bb 9b 3d 0f c2 be 3c 15 c8 af bd 13 7c f3 bc
       0.07604162 0.023285894 -0.085830845 -0.02972225
000370 c4 64 e4 bd 16 eb ca 3d 11 b5 b8 3d 9b 54 4f 3c
       -0.11152032 0.0990812 0.09018911 0.012654449
000380 91 12 7c bc e4 28 9f 3d 2e 95 67 3b 2a 5b c2 3c
       -0.015385286 0.07771471 0.003533672 0.023725111
000390 f4 2e eb 3c 97 cc 88 3d da 49 87 3d a1 a6 ba 3d
       0.028708912 0.066796474 0.06605883 0.09113813
0003a0 e1 83 c2 bd 61 14 49 bd af aa 81 3c c5 fd 39 bd
       -0.0949781 -0.0490917 0.015828459 -0.04540803
0003b0 f3 f4 84 3d 32 47 42 bc 22 3a 0c be 5d 58 bd bc
       0.06492033 -0.011857795 -0.13694051 -0.023113424
0003c0 4b 32 c8 bc c6 55 91 bd f2 61 f4 bc 68 be 76 3c
       -0.024438044 -0.07096438 -0.02983186 0.015060045
0003d0 97 9d 54 3d a6 f8 b6 bc 0f 57 a4 bd bc a9 54 3c
       0.051908102 -0.022335362 -0.080244176 0.012979921
0003e0 04 19 ad 3d b7 63 ce 3c 40 56 e9 3c 82 2c b0 3d
       0.08452037 0.025194032 0.02848351 0.08602239
0003f0 3a 58 e6 bc 43 d2 ba 3c 1a f7 d4 bd c4 b6 80 bd
       -0.028118242 0.022805339 -0.103986934 -0.0628486

conv_layers.12.bias f4 [16]
000000 12 d7 74 b7 cc 9e df 37 54 c2 22 35 45 c9 a1 37
       -1.4593608e-05 2.6657617e-05 6.063249e-07 1.9286419e-05
000010 4c 7a 8c 38 2a cc b0 b7 ae 6a ac 39 44 d6 0e b7
       6.6985e-05 -2.1075906e-05 0.0003288588 -8.513747e-06
000020 3b 2e b2 38 97 96 5b b8 f8 42 51 39 73 4c 26 38
       8.4963125e-05 -5.2353917e-05 0.00019956741 3.9648683e-05
000030 2c 7b 22 37 a9 ee e5 b9 26 74 4d b6 e5 6d 50 37
       9.684631e-06 -0.000438561 -3.0614988e-06 1.2423353e-05

conv_layers.13.weight f4 [16]
000000 e2 57 7e 3f aa de 78 3f e1 c6 7a 3f 6b 37 82 3f
       0.9935285 0.9721476 0.97959715 1.0173162
000010 f1 a3 82 3f 7e ca 7b 3f b4 05 80 3f 3e ad 7d 3f
       1.0206281 0.98355854 1.000174 0.9909247
000020 d8 10 82 3f 29 5d 79 3f 48 fa 78 3f 8e f7 81 3f
       1.016139 0.97407776 0.972569 1.0153673
000030 2f ab 7a 3f af 6b 84 3f cc 80 7c 3f 34 73 7c 3f
       0.97917455 1.0345362 0.9863403 0.98613286

conv_layers.13.bias f4 [16]
000000 72 4e 2d 3c 51 a8 0e bc 68 0a a7 3c c6 8a 1e 3d
       0.010577785 -0.008707122 0.020390704 0.038706563
000010 a3 ce ab 3c e0 ed c1 bb b5 fb a2 3b 71 ea 09 3c
       0.020972556 -0.0059182495 0.0049738535 0.008417712
000020 0b 06 9a 3c 66 ef ce 3c 15 d4 a5 3b ea dd 8f 3c
       0.01880171 0.025260638 0.0050606825 0.017561872
000030 c0 ad 53 3c 9c b8 12 3d 65 2e d1 bb d3 3f 92 bc
       0.012919843 0.03582059 -0.0063837045 -0.0178527

conv_layers.13.running_mean f4 [16]
000000 4d cd 20 3e 4b e1 cc bb 23 ef 84 be 4a 0c e3 be
       0.15703316 -0.006252443 -0.25963697 -0.44345313
000010 11 7b 99 3b 63 f5 20 bc 0d c0 0c bf 67 40 33 be
       0.00468386 -0.00982413 -0.54980546 -0.17505036
000020 fd 1c b7 3e 31 68 e2 3d 80 ea 83 3e d0 19 07 bf
       0.35764304 0.11055029 0.25764847 -0.5277376
000030 9e db 1a 3f 02 c6 85 bd a8 7e 8d be e6 14 5b be
       0.6049136 -0.065319076 -0.27635694 -0.21394691

conv_layers.13.running_var f4 [16]
000000 8f a3 b7 3d ba 50 cb 3d 44 5c 3c 3e 2b 27 22 3e
       0.08966743 0.09927507 0.18394572 0.15835254
000010 2a 47 1b 3e f0 cb c5 3d 7f c4 2b 3e 29 d2 76 3d
       0.15163866 0.096580386 0.16774176 0.060259018
000020 82 c3 ea 3d a3 97 94 3d c0 05 fc 3d e3 c7 db 3d
       0.114630714 0.07255485 0.12305784 0.10731485
000030 28 8a 0a 3e 72 d9 cc 3d b4 0f d6 3d 8d 0a ca 3d
       0.13529265 0.10002412 0.10452214 0.09865294

conv_layers.16.weight f4 [16, 16, 3, 3]
000000 1e 39 4b bd 29 73 76 3c c6 6b 2e 3d 7d 7b 52 3d
       -0.049615018 0.015042105 0.04258325 0.0513873
000010 eb 1c 90 bd 1e 3f e0 bc 4b 6d 46 3d 20 70 b6 bd
       -0.07036766 -0.027373847 0.048444074 -0.08908105
000020 d9 b5 a2 bd c1 79 8d 3d 65 e2 c2 3c f2 8b a5 3d
       -0.07944841 0.06907988 0.023789594 0.08083333
000030 12 62 55 3d ed c9 9a bd 0d 38 3e 3d b1 14 0b bc
       0.05209548 -0.075580455 0.046440173 -0.00848882
000040 6b ac 42 3d a5 49 9d 3c 37 a5 9c 3d aa b7 11 bd
       0.04752771 0.019200156 0.076487 -0.035575546
000050 84 8e 2b 3d 48 06 35 bd a8 eb 79 bb 18 9a 03 bd
       0.04188396 -0.044195443 -0.0038134847 -0.032129377
000060 7d 04 2b 3d 61 58 6c 3d 20 d7 12 bd c6 b2 18 3d
       0.041752327 0.057701472 -0.03584969 0.037279867
000070 e8 a3 9b 3d 2e e6 8a bc 72 f3 37 bc ce 80 17 bd
       0.07599622 -0.016955461 -0.0112274755 -0.036988072
000080 4f ef f3 3c e7 45 19 3c 88 ec 2f 3c 44 72 c6 bd
       0.029777197 0.009355045 0.010737546 -0.09689763
000090 59 29 6f 3d 9d 78 98 bc 2d d5 a9 3d 99 5a bf bb
       0.05838904 -0.0186122 0.08292613 -0.0058396575
0000a0 7e bd d7 bc 09 90 40 bd 40 db b6 3d ba 17 88 3d
       -0.026335474 -0.047012363 0.08928537 0.066451505
0000b0 ef 09 96 3d 06 1a a0 bd 1e c5 2e 3d cb 99 65 3d
       0.073261134 -0.078174636 0.042668454 0.05605487
0000c0 fc 99 77 3d aa 93 91 bd 1c 34 a1 3b da c5 31 3d
       0.060449585 -0.07108243 0.004919542 0.043401577
0000d0 07 61 65 bc 3c 09 90 bd f1 16 27 bd 9b 2a 2d bd
       -0.014000184 -0.07033011 -0.040793363 -0.04227696
0000e0 4f 93 af bd 84 d4 57 bd 23 28 62 3d 86 6f 52 3d
       -0.08573019 -0.052692905 0.05521406 0.05137589
0000f0 38 26 05 ba dd 3a 80 3d 08 5f 96 bc cc ca bc 3d
       -0.00050792424 0.06261227 -0.018355861 0.09218368
000100 c4 43 99 bd e8 59 01 bd 6f e3 94 3d f4 78 48 bc
       -0.074836284 -0.031579882 0.07269942 -0.012235869
000110 83 fb bf 3c 18 b0 78 3d 58 9b 1f bd 65 5f 2b 3d
       0.02343536 0.06071481 -0.038966507 0.041839022
000120 6e 60 d9 bc e0 65 cb bc a4 c9 80 bd 7f 2f ad 3a
       -0.02653524 -0.024828851 -0.0628846 0.0013213007
000130 fb cc ad bd 49 b8 dc bb 7f e6 64 bd 40 b6 2c bd
       -0.084863625 -0.0067358357 -0.05588388 -0.042165995
000140 52 e0 57 bd f0 55 5e bd 21 15 fe bc 81 6a 8a bd
       -0.052704163 -0.054281175 -0.031015934 -0.06758595
000150 59 49 06 3c 92 24 8d bd b2 11 52 3d 7d 99 00 bd
       0.008196198 -0.06891741 0.051286407 -0.031396378
000160 a8 ea 93 3c b0 6b b3 3c c6 04 c1 bc 2a cf a9 bd
       0.018056229 0.021901935 -0.023561846 -0.082914665
000170 5a e2 8e bd ba b6 8e 3c 6b b2 84 3d 8d ca 8e bd
       -0.06976767 0.017421115 0.06479343 -0.06972227
000180 2a d8 8b bd 43 6f 81 3d 39 b3 a5 bd 73 4b df 3d
       -0.068283394 0.063200496 -0.08090825 0.10903063
000190 b5 a8 6a bd d1 dd 47 3d 72 8f a2 3a 47 94 8a bc
       -0.057289798 0.048795525 0.0012402369 -0.016916407
0001a0 18 57 56 bd 13 93 ea bc 7d 14 df bc 5e d4 60 bc
       -0.052329153 -0.028634584 -0.02723145 -0.013722507
0001b0 b2 f3 04 3d 46 bd ca 3b 8d 37 95 bd 09 4b 69 3d
       0.03245897 0.006187114 -0.07285986 0.056956325
0001c0 0b ef 40 3d 3c e0 2c bd fe 14 88 bd 0a e2 5e 3b
       0.04710297 -0.042206034 -0.06644629 0.0034009241
0001d0 32 5a ef bc 8b 6e e5 bd 5b c4 c8 3a 97 03 7f bd
       -0.029217813 -0.11202725 0.0015317308 -0.062259283
0001e0 9c f1 92 bb 9c c0 25 3d 9f 18 ce 3a 3f 04 46 bd
       -0.0044843685 0.04046689 0.001572389 -0.048343893
0001f0 83 f9 37 3d 57 8e 42 bd ea 96 77 3d e3 c2 77 3d
       0.044915687 -0.047499027 0.060446657 0.060488593
000200 f5 51 86 bc 72 ec bd 3d a1 09 02 bd 35 e6 7c bd
       -0.016396502 0.09273614 -0.031747464 -0.06174298
000210 b0 21 cc 3d 5f af 04 bd a2 46 04 bc c7 7b 46 3c
       0.09967363 -0.03239381 -0.008073481 0.012114472
000220 6c 22 21 bd ec 50 2b bd dd e6 8f 3d cd 7e 9a 38
       -0.039339468 -0.04182522 0.070264556 7.366911e-05
000230 9b fb 0f 3d 92 0f b3 3d 0d 90 9b 3d ed 19 48 bd
       0.03515206 0.08743204 0.07595835 -0.04885285
000240 2d ea 50 bd 24 59 b8 bd 3f 38 1e 3d 43 26 58 bd
       -0.051004577 -0.09001377 0.03862786 -0.052770864
000250 18 2e 04 3d 52 72 71 bd 6a c5 26 3c e4 83 19 bd
       0.03227052 -0.058946915 0.010178903 -0.037479296
000260 02 e3 b8 3d 4a 6e 3c 3d 2d 62 40 bc 72 b7 56 bd
       0.09027673 0.046003617 -0.011742157 -0.05242104
000270 4a 80 43 bd dc d9 6d 3c ac 8d d1 bc 4c 0a 02 3d
       -0.047729768 0.014517274 -0.02558025 0.0317481
000280 12 a4 67 bd 8c 15 93 bd 28 5c 32 bd 83 38 1a bb
       -0.056552954 -0.07181844 -0.04354492 -0.0023532219
000290 1d e4 ee 3c 6b f1 1e bc 6f c4 44 bd 96 8d 1e 3d
       0.029161507 -0.009701113 -0.048038896 0.038709246
0002a0 61 79 30 bd 29 89 ec 3c 63 6a 36 3d 51 f0 0b 3d
       -0.043084506 0.028873997 0.044535052 0.03416473
0002b0 03 68 92 bc e7 1f 50 bd 25 40 a6 bd e1 90 88 3c
       -0.017871862 -0.050811674 -0.08117703 0.016670646
0002c0 14 55 84 ba 6b aa 91 bd 10 6f 5d bd 98 e0 80 bc
       -0.0010096156 -0.07112583 -0.054060996 -0.015732095
0002d0 79 4b af 3d c4 3f 89 3d 85 c9 1f bc 90 3d 3c 3c
       0.08559317 0.067016155 -0.009752636 0.011489287
0002e0 e4 a8 b2 3c 1a 9d 1a 3c 91 a8 8c 3d be 13 5e 3d
       0.021809049 0.00943687 0.06868089 0.054218046
0002f0 e4 0a a3 bc e8 21 01 bc 54 f5 e7 bc 0c 69 04 3d
       -0.019902654 -0.007881619 -0.028315224 0.032326743
000300 e6 97 7c bd 7d 14 a3 bc 49 78 61 bc 81 b6 e8 3c
       -0.0616683 -0.01990723 -0.013761588 0.028407337
000310 42 6b 8f 3d 1b 23 71 3d 59 72 ac bb 3a f8 0e bd
       0.0700288 0.05887137 -0.0052626547 -0.034904696
000320 a6 2f da bd 2b 21 84 bd 6f b4 3d 3d f3 b5 bb bd
       -0.106536195 -0.06451639 0.046314653 -0.091655634
000330 5d 28 c3 bd 9d 4a 6f 3b a4 bd 66 bd e1 71 7f 3d
       -0.09529183 0.003651298 -0.0563332 0.062364463
000340 69 f2 36 3d 63 4d 60 bd 73 b7 5f bc 2a 47 a3 bd
       0.044664774 -0.0547613 -0.013654578 -0.07972558
000350 3b 5a 07 bd 9e 14 5a bd e2 fb 6e bb 6e 96 bd 3c
       -0.033045035 -0.05324232 -0.0036466052 0.02314302
000360 5e ae 07 bd 41 cc ce ba 67 06 a8 3d 79 d4 22 3d
       -0.033125274 -0.0015777425 0.08204346 0.03975341
000370 a2 7a fb 3c 3f ef 39 3d 58 4d 64 bd 1a dd 83 bb
       0.030698124 0.04539418 -0.055737823 -0.00402416
000380 4b 5e 09 3d b7 7c c3 bd 2f 24 14 bd 45 37 ae 3c
       0.03353719 -0.09545272 -0.03616732 0.021266589
000390 e0 de 86 bc e6 98 ce 3c 1e 99 4a bd 53 ce c7 bd
       -0.016463697 0.025219392 -0.04946243 -0.0975615
0003a0 cb ca 56 3d 73 9b 47 3c f0 ff 1f 3d 29 39 8a 3d
       0.052439492 0.012183058 0.03906244 0.06749184
0003b0 61 5d 49 bd 04 e1 72 3d 66 ec 74 bd f9 f6 20 bd
       -0.04916132 0.059296623 -0.05979576 -0.03929803
0003c0 d0 56 33 bc 09 db 03 3d 8e 02 98 bd 5d 3d f8 bc
       -0.010945991 0.03219131 -0.07422362 -0.030302698
0003d0 c3 f2 7c 3c dd 1c c2 3c 97 e1 ba 3d c2 d6 05 3a
       0.015438738 0.023695404 0.09125059 0.0005105549
0003e0 d5 8f 1a bd 03 22 02 bd b2 79 92 bd c3 85 0f bc
       -0.037734825 -0.031770717 -0.07152118 -0.008759919
0003f0 89 6b 19 bb bf 5e 0b bd d3 cd 24 bd 4a 59 d5 bc
       -0.0023410043 -0.034025904 -0.04023535 -0.026043553

conv_layers.16.bias f4 [16]
000000 9b 8d 44 b6 03 e5 d1 b6 66 81 60 b6 4b 97 bf b6
       -2.9288701e-06 -6.255346e-06 -3.345392e-06 -5.7098564e-06
000010 bb 0a 05 b7 62 85 f6 33 95 28 1c b7 b4 73 de 35
       -7.929916e-06 1.147953e-07 -9.307773e-06 1.6573963e-06
000020 6b 56 9b 36 fe 14 fa b3 3f 98 16 b7 ca b4 1a 37
       4.6294203e-06 -1.16453506e-07 -8.976144e-06 9.2212085e-06
000030 f5 dc 03 b6 39 8f 2a b6 5e b7 3a 36 ad b4 ea b6
       -1.9649135e-06 -2.541534e-06 2.7822894e-06 -6.994777e-06

conv_layers.17.weight f4 [16]
000000 24 64 86 3f b7 a3 85 3f b4 c6 81 3f 5e 3c 83 3f
       1.049931 1.0440587 1.0138764 1.0252798
000010 09 d0 84 3f 59 3c 83 3f 33 5a 88 3f da a8 81 3f
       1.0375987 1.0252792 1.0652527 1.0129654
000020 e6 d1 7e 3f d6 aa 85 3f 01 5e 84 3f e2 10 81 3f
       0.9953903 1.044276 1.0341188 1.0083277
000030 c0 76 83 3f 72 61 84 3f c9 a9 85 3f e0 70 7d 3f
       1.0270615 1.0342238 1.0442439 0.9900036

conv_layers.17.bias f4 [16]
000000 de 19 b8 3c 5c 95 9f 3c 48 77 4a 3b 2b f9 18 3c
       0.022473272 0.0194804 0.003089385 0.00933675
000010 cf bb 8f 3c fe 63 fd 3b de 0f 2b 3d 86 06 f7 3b
       0.017545609 0.0077328673 0.04176318 0.0075386195
000020 e0 5c 22 bc 72 71 ed 3c 9c d6 28 3c 79 05 c9 3b
       -0.009909838 0.028984759 0.010305073 0.0061346856
000030 72 f7 4e 3b f6 c8 a5 3c dd f7 d1 3c c4 a2 e1 b9
       0.0031580594 0.020237427 0.025630886 -0.00043036614

conv_layers.17.running_mean f4 [16]
000000 4c cd 86 be 30 ab 0d bf 4b 72 3a bf 46 49 8b be
       -0.26328504 -0.55339336 -0.7283065 -0.2720434
000010 98 0c d2 3c 2b b9 ec bd 6d 50 13 3e c4 ab 20 bf
       0.02564077 -0.115587555 0.14386149 -0.62762094
000020 67 0f 77 3e d3 4f 7d bf 6a 7f b1 bd 42 cf 18 be
       0.2412697 -0.9894993 -0.086668804 -0.14922813
000030 a2 a0 ec bf 06 e7 77 bf 9c f0 73 bf 6c 92 60 3e
       -1.8486521 -0.9683689 -0.95289016 0.21930856

conv_layers.17.running_var f4 [16]
000000 3c ac 8d 3e 1e 0f 5f 3e c4 05 4e 3e 64 f0 38 3e
       0.27670467 0.2178311 0.20119387 0.18060452
000010 38 69 2f 3e 29 b9 11 3e 11 27 13 3e 4f fe 95 3e
       0.17129982 0.14230789 0.14370371 0.29295585
000020 67 36 5f 3e 87 7f aa 3e ce 92 b4 3e 4e 69 8a 3e
       0.21798097 0.3330042 0.35268253 0.27033466
000030 6d f1 19 3f 94 99 9c 3e 2f 74 a2 3e 67 28 73 3e
       0.6013401 0.3058592 0.31729266 0.23745881

fc_layers.1.weight f4 [64, 256]
000000 06 94 b4 bc 0c 5b 9f 3d 8d 2e 94 3d 00 e5 5a 3d
       -0.02204324 0.07781038 0.07235441 0.053441048
000010 7f 27 1b bd 22 3e 84 bc 50 02 52 3d 5e 83 57 3d
       -0.037879463 -0.016142908 0.051271737 0.052615516
000020 d2 f8 e9 bc 8c df 93 3c 56 84 99 bb 69 cc 31 bc
       -0.02856103 0.018050931 -0.004684965 -0.010851958
000030 0f f9 d1 bb 60 99 5a 3d 5e 1b ec 3c 26 c0 41 3d
       -0.006407864 0.053368926 0.028821643 0.047302388
000040 a6 4b ff bc dc c0 ac 3c 3b 84 3b bd 0f 7f f7 bc
       -0.031164002 0.021088056 -0.0457804 -0.030211953
000050 c4 c8 14 3d a0 20 47 3d fb 1e bd bc 0a e9 21 3d
       0.036324278 0.048615098 -0.023086062 0.039528884
000060 cb c4 2e 3d 28 c3 85 3d 7a 0e 1a 3d 9a c3 62 3d
       0.042668145 0.06531364 0.037611462 0.05536232
000070 0e c7 5b bd c5 ca 10 3c 1b 78 6d 3d 80 67 86 3d
       -0.05365663 0.0088374065 0.05797587 0.0656271
000080 d1 d2 d3 3b 0e 73 a2 3c c9 b3 77 3d 4c 69 86 bd
       0.0064643403 0.019830253 0.06047419 -0.065630525
000090 6f 99 5e 3d dd a3 70 3d 27 1a 40 bd a7 8b b0 bb
       0.054345544 0.058750022 -0.04689994 -0.0053877416
0000a0 ff 05 a0 3c 8e 51 ef bc 5c 4b 9a 3d 96 08 33 3c
       0.01953411 -0.029213693 0.07533905 0.01092734
0000b0 ad 57 05 3d c6 58 04 bd 87 90 35 3c f4 ba 46 3d
       0.032554317 -0.032311223 0.011081821 0.048518136
0000c0 58 53 49 3d 47 2a f1 3c 3f fb c3 3c be 0c e4 3c
       0.04915175 0.029439105 0.023923514 0.027838107
0000d0 27 67 4b 3d f6 96 95 bd 59 e1 50 bd 06 d6 01 bd
       0.04965892 -0.07304184 -0.05099616 -0.03169825
0000e0 5e 8c 09 bd 57 7f 5f bd ed 72 f0 3c 7b 20 ab ba
       -0.03358113 -0.0545648 0.029351676 -0.0013055945
0000f0 5c 97 6c 3d d3 d5 b8 3c 03 df ee bb 9d 8f 65 3d
       0.057761535 0.022562897 -0.0072897687 0.056045163
000100 30 ce 97 bc 1f c8 4b 3c be 06 69 3d af 4b 1d bd
       -0.018530935 0.012437849 0.056891195 -0.038402256
000110 46 fd 0e bc a5 bd f6 39 40 77 52 bd 2b 40 2c 3d
       -0.008727377 0.00047062073 -0.051383257 0.042053383
000120 fc 31 99 bd 7d 1c a3 bd 19 75 81 bb df ce 43 3d
       -0.07480237 -0.07964418 -0.0039507267 0.04780471
000130 fd 74 c9 bc ab 5c 1d bd 79 dc 89 bc c4 b0 01 3d
       -0.024591917 -0.038418453 -0.016828762 0.031662717
000140 91 0f 37 bd bc ac 06 bc 75 e9 0c bc b4 d8 32 3d
       -0.04469258 -0.008219894 -0.008600582 0.043663695
000150 19 08 37 bc 21 8b c4 3b 7c cd f1 bc 7b 90 ef 3b
       -0.011171364 0.005998031 -0.029516928 0.0073109246
000160 7b 98 aa bc 68 9c e9 bc a6 d5 06 bd ce 83 49 3c
       -0.020824661 -0.028516963 -0.032918595 0.012299491
000170 29 51 bc 3a 57 bf 0b 3d cc 88 e1 bc 97 b4 12 3d
       0.0014367449 0.034118023 -0.02753105 0.035816755
000180 3a f8 66 3d 14 eb 5b bc 8d a8 2f 3d fc 10 8b bd
       0.05638907 -0.013422746 0.042885352 -0.06790349
000190 18 82 69 bd 82 81 ab bd 98 c7 81 bd ac bb 13 bd
       -0.057008833 -0.08374311 -0.063368976 -0.03606765
0001a0 d8 53 06 3d 3f fd 96 bd 89 ea 41 3c f2 27 3b bd
       0.032794803 -0.073725216 0.011835703 -0.04569239
0001b0 74 e3 49 bd 16 6e 97 bc 4d 49 08 3c d5 0f 5b bd
       -0.04928918 -0.01848511 0.0083182575 -0.053481895
0001c0 5d 32 d6 bc 77 69 86 3d 82 60 12 bd d9 7d 24 3d
       -0.026147062 0.065630846 -0.03573657 0.04015908
0001d0 0c bc 5f 3d 11 1b bf bc c7 fe 52 bc 92 54 18 3d
       0.054622695 -0.023328336 -0.012878126 0.037190028
0001e0 ba fc 0c bc 46 53 45 3b 4f 18 38 3c 57 30 87 bc
       -0.008605177 0.003010945 0.011236264 -0.016502542
0001f0 73 52 0f bd cf 1d 25 3d a0 a8 83 3b b9 24 86 3d
       -0.03499074 0.04031163 0.0040179044 0.06549973
000200 c4 b3 ce 3b ed c0 ce 3c 7a 73 07 3d 05 39 12 bd
       0.006308051 0.025238479 0.03306911 -0.03569891
000210 0b d5 3e bd 4d 9d 2f 3d d8 ba 87 bc e8 ae a7 3c
       -0.046589892 0.042874623 -0.016568586 0.020469144
000220 59 47 d8 bc 79 bd 97 3c 1b 9d e9 3b d6 97 24 3d
       -0.026401209 0.018522965 0.007129324 0.040183865
000230 a3 7e 76 3c 9a 99 00 3d 2b f6 0a bd 8f 1c 74 3c
       0.015044841 0.031396486 -0.03392617 0.014899387
000240 9f ec 0f 3d 9d ad 72 3d a3 2f 1e 3c 1a 52 8e 3c
       0.03513777 0.0592476 0.009654912 0.017373133
000250 28 d1 22 bd 41 75 0e 3d b5 50 4d 3d a4 37 ed bc
       -0.03975025 0.03477979 0.050125796 -0.028957196
000260 f5 31 51 3d 4c 8a aa 3b b0 3d 93 3c 7e 88 0c 3d
       0.051073033 0.0052044746 0.01797375 0.034309857
000270 a3 2e 31 3d 35 15 1d bd ce b9 c1 3c 4c 92 5e 3d
       0.043257367 -0.038350303 0.023648169 0.05433874
000280 c0 97 79 bc 77 6b 8d 3d 68 aa d9 3c 28 33 48 bd
       -0.015233934 0.06905263 0.026570514 -0.04887691
000290 13 0a 35 bd 5b c9 8b 3d fd 33 37 ba b0 3d db bb
       -0.04419906 0.06825515 -0.0006988643 -0.0066907033
0002a0 f9 d6 59 ba 33 c3 59 3d aa ce 17 3d 98 5b a6 bb
       -0.00083099265 0.053164672 0.037062325 -0.005076837
0002b0 73 45 79 3d 35 8d 91 bc 27 ac 05 3c 61 ff 90 3d
       0.060857248 -0.017767528 0.00815872 0.0707996
0002c0 30 90 89 3c 60 1a b7 3c 37 ba b8 3c 9d 4c 10 bd
       0.016792387 0.022351444 0.022549732 -0.035229314
0002d0 40 1e 59 3b 21 ec 25 bd a2 02 cb bc 76 0c 79 3d
       0.0033129603 -0.040508393 -0.024781529 0.0608029
0002e0 7e 58 00 3b 81 2a 50 bc 9c 28 3d 3d 26 fa 1a 3d
       0.0019583995 -0.012705446 0.046181306 0.037836216
0002f0 03 63 00 3d 48 99 a0 bd d1 48 c0 3c 80 fb 80 bd
       0.031344425 -0.07841736 0.023472222 -0.0629797
000300 38 6d b7 bc f6 58 30 bb 2c b0 46 bd f5 89 a1 bc
       -0.022390947 -0.0026908494 -0.048507854 -0.019719103
000310 16 b6 0d bd c1 7c 3a 3d d2 a6 98 bc b0 6f ab 3b
       -0.03459748 0.04552913 -0.018634234 0.00523182
000320 2c e1 05 3d eb 3f 68 3d 9f 1e 89 3d d3 a0 76 ba
       0.032685444 0.056701582 0.06695294 -0.000940812
000330 58 82 04 bd fd a2 8c 3b be cd aa bc e9 d4 71 3d
       -0.032350868 0.0042918907 -0.020850059 0.059040938
000340 73 e1 70 bc 1d 70 5c 3d fd 79 f9 3c df 70 ee bc
       -0.014702189 0.053817857 0.030453676 -0.029106556
000350 36 ea 48 3d 9b df f8 3b 15 5a fa bc bb 97 d1 3c
       0.049051486 0.007595015 -0.030560533 0.025585046
000360 fa 65 46 3d 9f c2 b1 3c 93 ee 8e 3d 35 9c 29 3d
       0.048437096 0.021699248 0.06979098 0.041408736
000370 fe 16 36 3d a0 53 70 3d 2a 0a af 3b 3d cc e4 3b
       0.04445552 0.0586735 0.005341788 0.006982355
000380 d4 71 ef 3b ca 1e 67 3d 4f 91 51 3c 8e e5 72 bd
       0.0073072705 0.056425847 0.012790992 -0.05930095
000390 4a 65 bb 3b a4 a5 b4 3d 45 17 16 3d 29 d4 20 3a
       0.0057188617 0.08820656 0.036643285 0.000613513
0003a0 36 87 01 bc aa 48 a0 3d 2a 10 90 3d 39 c3 ae 3d
       -0.007905772 0.078263596 0.07034333 0.085333295
0003b0 0c cf 76 bd cf 2b 1c 3d d6 83 3e 3d e2 d0 eb 3b
       -0.06025605 0.038127717 0.046512447 0.0071965316
0003c0 9a 0d 77 3d b6 b2 59 bd 9b e1 20 bd 1f 03 47 3d
       0.060315706 -0.053148948 -0.039277654 0.04858696
0003d0 43 de 27 bd 71 e7 b3 3c 3b 33 4a bd ce 21 67 bd
       -0.04098345 0.021960946 -0.049365263 -0.056428723
0003e0 42 53 85 bd 45 78 97 bd 78 5a 7e bd 19 d2 22 bd
       -0.06510021 -0.073959865 -0.062097996 -0.039751146
0003f0 f4 3f 44 bd f1 5a 76 3a a1 a1 0e 3d 70 62 6b 3b
       -0.047912553 0.00093977066 0.03482211 0.0035916828

fc_layers.1.bias f4 [64]
000000 10 5d 78 3b 81 bf 36 bd cf 4f 97 3c a6 eb bd bc
       0.0037897266 -0.044616226 0.018470673 -0.023183655
000010 5b 15 11 3d e7 93 38 3d ce 73 d3 3c d2 1b 3d bb
       0.035420757 0.045062926 0.025812056 -0.0028855694
000020 91 db 2b bb 3c a8 71 bb a4 39 27 3c b5 67 af bc
       -0.00262234 -0.0036873957 0.010206614 -0.021411756
000030 0b 42 2e 3d 75 e1 67 3d e2 33 6a bd a3 25 83 bd
       0.042543452 0.056611497 -0.057178386 -0.06403663
000040 0e f1 b7 2f 78 78 27 3d bb 41 5c bd ed 24 83 bb
       3.3458786e-10 0.040886372 -0.053773623 -0.0040022046
000050 0a 28 20 bd ae fb 5a 3c 37 0a 10 3d d1 2c 32 bd
       -0.039100684 0.013365669 0.03516599 -0.04349977
000060 9b f6 96 b4 3a 30 9b bb 55 5d 05 bd e6 c2 8c bb
       -2.8119106e-07 -0.0047359737 -0.03255971 -0.0042956946
000070 b7 f7 67 ba 00 89 dd 3c 75 66 ac bc e0 27 12 3d
       -0.0008848863 0.027042866 -0.02104495 0.03568256
000080 7e 05 14 3d 4f 6b a4 3c e1 3b 79 3d bf ca 60 bd
       0.03613805 0.0200707 0.06084812 -0.054880854
000090 58 13 0e 3c 21 10 83 bb 75 ec 13 bd 28 2d 6e bd
       0.008671604 -0.0039997254 -0.036114175 -0.058148533
0000a0 10 30 10 bd 99 ad d3 3c 31 04 04 bd 55 67 28 bb
       -0.035202086 0.025839614 -0.03223056 -0.0025696356
0000b0 38 6a 4d bd 6b 1e 2d bd 76 68 88 bc 11 31 72 bd
       -0.050150126 -0.042265337 -0.016651373 -0.059128825
0000c0 a9 39 1d 3c c2 1f 1d 3d da b2 2e bd e2 5d 80 bc
       0.009596267 0.038360365 -0.042651035 -0.015669767
0000d0 2d 96 34 3d bc c6 67 3d df 37 59 bd 99 58 1b 3c
       0.04408853 0.056586012 -0.0530318 0.009481573
0000e0 9c 28 7c 3c dd 18 21 3d 53 30 e2 bc 66 61 b5 3b
       0.015390541 0.039330352 -0.027610933 0.0055352924
0000f0 52 d6 ed 3c 2b 36 9e 3c 91 68 82 3d bb df 77 bd
       0.02903286 0.019312939 0.06367601 -0.0605161
